computer-vision-and-image-processing/rotated_data.pt (torch, 76859 bytes, 6 tensors)

cnn1.weight f4 [16, 1, 5, 5]
-0.050936736 0.040148973 0.18063405 0.05786788 -0.032897502 -0.1388831 -0.3203559 -0.2739899
-0.26926795 -0.21888344 0.26039916 -0.09461552 -0.13348979 0.17623647 -0.0153999645 0.18562603
0.17659198 0.36456737 0.1821603 0.20032884 -0.045271788 0.29874521 -0.13532111 -0.073254876
-0.08481771 -0.076548 0.26545095 0.27805796 0.104343966 0.065788284 0.28976202 0.5391616
0.28500095 -0.054893855 -0.096523605 0.016685441 0.1773341 0.2832339 -0.048693627 -0.06826196
-0.20854375 0.32919464 0.2802122 -0.15112244 -0.04864394 -0.21134667 0.11567347 0.24420825
0.13841997 0.09622569 -0.017674943 0.021316806 0.21274193 0.22394082 -0.15598053 0.13292113
0.40662044 0.54975694 0.58475477 0.07665184 0.04238939 -0.23906507 -0.26990727 0.26494446
0.37481707 -0.42079878 -0.3710078 -0.27686203 -0.13974111 0.24561018 0.1409921 -0.06841811
0.024879038 0.102836415 0.24572143 -0.07536535 -0.12855722 0.00730452 -0.21616074 -0.23855111
-0.052347347 -0.0055148066 -0.42475274 -0.17584561 -0.16484989 -0.18118647 -0.24837457 -0.13050157
0.10582441 0.37756777 0.053374615 0.37822685 0.4112326 0.5751153 0.35506353 0.41029826
0.417114 0.48537564 0.02840901 -0.23822567 0.2798787 0.50517434 0.49497798 0.33337674
0.035623122 0.19903517 0.57554275 0.7476242 0.7184193 0.39697433 -0.1686593 -0.46326342
-0.5588561 -0.25025967 0.09850758 -0.32822192 -0.45043632 -0.5271334 -0.45813587 -0.28898922
-0.010853559 0.13942422 0.00191249 0.06696733 -0.010584873 0.050227616 -0.11664721 0.054004744
0.27642664 -0.068879105 -0.16229285 -0.27799177 0.51619226 0.22706234 -0.05528077 -0.08700406
-0.034864433 0.6548183 0.19390936 -0.12612978 -0.4264395 0.15914226 0.69827956 -0.077331
-0.22393161 -0.014943048 0.10139386 0.50647676 0.18664867 0.032311946 -0.017207557 0.028131856
-0.03191717 0.048501484 -0.059484977 -0.17093752 0.062435176 -0.31913206 -0.31245422 -0.063805826
0.088097565 -0.108117804 -0.05729142 0.119178586 0.20483638 0.30420616 0.48075202 0.3855755
0.21647418 0.059805986 -0.21138498 -0.031694278 0.04391946 0.02822478 -0.17281118 -0.019438447
-0.06822699 -0.39070433 -0.3682911 -0.033342242 0.18435344 0.10469937 -0.34639156 -0.1359068
-0.07482728 0.2593477 0.20243782 0.35022232 0.14231639 -0.113962054 0.25717214 0.5016937
0.6347009 0.46301982 0.15805183 0.0038041475 0.028754411 -0.06623495 0.30061805 0.2730945
0.093966715 0.20500273 0.18640278 -0.22062472 -0.43886232 -0.022076607 0.39784682 0.72867465
0.11511207 -0.20470183 0.0505504 -0.15785605 0.69333166 0.857178 0.29245275 -0.27956343
-0.40857342 -0.024916274 0.3886382 0.44622478 -0.15970387 -0.20744194 -0.21166873 0.16466582
-0.13105689 -0.08017587 -0.04243146 -0.18244894 -0.18320808 -0.053587887 -0.1325749 -0.08319952
0.08926369 -0.027886504 -0.13883604 -0.0043746275 0.021891566 0.03742465 0.017571503 -0.15459605
-0.14830342 -0.13516152 -0.17599843 -0.16430114 -0.1187848 -0.18252714 0.09921521 0.024405293
0.028716298 -0.11870803 0.009438843 -0.19582622 -0.107581876 0.040835574 -0.060835987 0.1071365
00000000: 0aa3 50bd 4073 243d 22f8 383e df06 6d3d
00000010: 88bf 06bd 5f37 0ebe b005 a4be 6748 8cbe
00000020: 7ddd 89be fb22 60be 0a53 853e c8c5 c1bd
00000030: 8cb1 08be 5577 343e 2250 7cbc c014 3e3e
00000040: 87d4 343e 93a8 ba3e 3b88 3a3e 0123 4d3e
00000050: e96e 39bd 22f5 983e 9e91 0abe a706 96bd
00000060: e8b4 adbd 33c5 9cbd 30e9 873e 9d5d 8e3e
00000070: 4ab2 d53d 02bc 863d b05b 943e 7f06 0a3f
00000080: a5eb 913e 61d8 60bd 2bae c5bd e8af 883c
00000090: 1297 353e 0904 913e f872 47bd edcc 8bbd
000000a0: 7e8c 55be 338c a83e f977 8f3e d7bf 1abe
000000b0: de3e 47bd 436b 58be 36e6 ec3d ba11 7a3e
000000c0: f7bd 0d3e f911 c53d 0bcb 90bc 95a0 ae3c
000000d0: 05d9 593e be50 653e 5cb9 1fbe 7a1c 083e
000000e0: 8e30 d03e dfbc 0c3f 7db2 153f a4fb 9c3d
000000f0: 7fa0 2d3d 79cd 74be 4931 8abe cda6 873e
00000100: 06e8 bf3e f072 d7be bcf4 bdbe dcc0 8dbe
00000110: 4b18 0fbe 3c81 7b3e 3c60 103e cb1e 8cbd
00000120: 20cf cb3c e69b d23d 669e 7b3e 2659 9abd
00000130: 81a4 03be c15a ef3b 3e59 5dbe be46 74be
00000140: 2c6a 56bd 8db5 b4bb 3179 d9be df10 34be
00000150: 69ce 28be f288 39be e755 7ebe 34a2 05be
00000160: 78ba d83d 9050 c13e 579f 5a3d f3a6 c13e
00000170: 148d d23e c23a 133f e3ca b53e 9d12 d23e
00000180: f78f d53e 2883 f83e 03ba e83c 6ef1 73be
00000190: 434c 8f3e 1b53 013f c16d fd3e 5bb0 aa3e
000001a0: 8de9 113d e0cf 4b3e c556 133f 4d64 3f3f
000001b0: 54ea 373f 3840 cb3e 06b5 2cbe dd30 edbe
000001c0: 3211 0fbf 0922 80be 58be c93d b40c a8be
000001d0: 979f e6be 37f2 06bf c990 eabe 65f6 93be
000001e0: 20d3 31bc 39c5 0e3e 84ac fa3a 2b26 893d
000001f0: 2d6c 2dbc 79bb 4d3d bce4 eebd 1434 5d3d
00000200: cb87 8d3e 7d10 8dbd 1930 26be f054 8ebe
00000210: 2d25 043f 0883 683e 176e 62bd 2f2f b2bd
00000220: 02ce 0ebd 2ca2 273f 2d90 463e 2a28 01be
00000230: 4756 dabe 30f6 223e 73c2 323f b75f 9ebd
00000240: 544e 65be b0d3 74bc 96a7 cf3d 76a8 013f
00000250: d420 3f3e 8859 043d ddf6 8cbc c774 e63c
00000260: 94bb 02bd 7ea9 463d 85a6 73bd 3f0a 2fbe
00000270: 07bc 7f3d 4765 a3be 00fa 9fbe a1ac 82bd
00000280: 7f6c b43d de6c ddbd 68aa 6abd e713 f43d
00000290: a1c0 513e e9c0 9b3e 2125 f63e 276a c53e
000002a0: 68ab 5d3e 1ff7 743d 4e75 58be dcd1 01bd
000002b0: e4e4 333d a737 e73c 6af5 30be 613d 9fbc
000002c0: 98ba 8bbd 660a c8be a790 bcbe e091 08bd
000002d0: 26c7 3c3e a06c d63d 3c5a b1be 272b 0bbe
000002e0: 0c3f 99bd 39c9 843e dc4b 4f3e 5750 b33e
000002f0: 63bb 113e f064 e9bd 11ac 833e 006f 003f
00000300: c27b 223f ef10 ed3e 57d8 213e 014f 793b
00000310: 5f8e eb3c 31a6 87bd 9cea 993e 0bd3 8b3e
00000320: 9f71 c03d 3cec 513e 5fe0 3e3e 72eb 61be
00000330: 90b2 e0be 00da b4bc 94b2 cb3e 6c8a 3a3f
00000340: e1bf eb3d 5b9d 51be f00d 4f3d 04a5 21be
00000350: 2f7e 313f 0470 5b3f 5ebc 953e f022 8fbe
00000360: 8930 d1be 371d ccbc 96fb c63e 9377 e43e
00000370: 6989 23be a96b 54be b0bf 58be 289e 283e
00000380: c733 06be 3f33 a4bd 9ccc 2dbd e5d3 3abe
00000390: e69a 3bbe f97e 5bbd b7c1 07be 8364 aabd
000003a0: e2cf b63d 3d72 e4bc 092b 0ebe 0959 8fbb
000003b0: f155 b33c 974a 193d 1df2 8f3c 6d4e 1ebe
000003c0: dadc 17be c867 0abe ef38 34be 8f3e 28be
000003d0: 7245 f3bd 65e8 3abe 5831 cb3d 9ced c73c
000003e0: 713e eb3c 321d f3bd 60a5 1a3c ab86 48be
000003f0: e353 dcbd 3443 273d 282f 79bd 626a db3d

cnn1.bias f4 [16]
0.027915632 -0.034334708 0.00040040232 0.004823469 0.18794225 -0.0627815 0.0019961055 -0.0045726877
-0.0015250838 0.24179967 -0.11397491 0.057630442 -0.014735945 -0.00044036828 0.00088720245 0.011152083
00000000: 53af e43c 8da2 0cbd 17ed d139 310e 9e3b
00000010: ef73 403e 9693 80bd 18d1 023b 7cd6 95bb
00000020: 52e5 c7ba 559a 773e ad6b e9bd e60d 6c3d
00000030: 086f 71bc 3be1 e6b9 2693 683a 3ab7 363c

cnn2.weight f4 [32, 16, 5, 5]
-0.0013034918 0.013922646 -0.008036999 0.0145106 -0.06039966 0.031287532 -0.035745613 -0.036511883
0.039783433 0.0049598683 -0.04422278 0.025053602 -0.017148832 0.029467227 -0.033105094 -0.04973044
-0.009397638 -0.017689632 -0.079535246 -0.08067453 -0.018070152 -0.011856778 0.0155878905 0.0055650068
-0.017891305 0.03523895 -0.02243083 0.0030934454 0.011490445 -0.051403254 -0.016092623 -0.039181102
0.015357556 -0.04808498 -0.01637503 0.060438793 -0.0064757806 -0.037886057 -0.016586667 0.079072274
0.006626471 0.051213585 0.030549863 -0.07888069 0.05102872 0.05526827 0.0075341305 0.010481209
-0.120768026 0.019760722 -0.018126247 0.031736594 -0.00861361 -0.02785946 -0.002407028 -0.025722673
-0.054567512 -0.055092078 0.067249425 0.01731131 -0.004448954 0.052898843 0.022608014 0.11291532
-0.046712637 -0.03605725 -0.0044838293 -0.05069336 0.076450594 0.028059144 0.054123305 0.0031023724
-0.011266389 -0.018849518 0.14491127 -0.046487674 -0.02644348 -0.08064326 -0.051024392 -0.11604267
0.04757839 0.0049370304 0.061896045 0.007025197 0.05658914 0.08310114 0.025124973 -0.046626884
-0.074159175 -0.053789675 0.010877409 0.010289736 0.0018763739 -0.12056276 -0.14558707 -0.04402495
-0.032545377 -0.06608512 -0.053060748 0.023530975 -0.029609887 0.0015206457 -0.043954223 -0.079558685
-0.08637168 -0.03110903 0.017321574 0.018243035 -0.050482046 -0.10970651 -0.0149033675 -0.015533534
0.021203734 -0.007608267 -0.02843319 0.019018682 -0.0047073206 0.040228557 -0.014750024 -0.028780535
0.08490209 0.0018852124 -0.049931414 -0.007428684 0.023986388 -0.014913851 0.0042811297 -0.037000827
-0.031186242 0.0060550487 -0.025261126 -0.0796065 0.004274584 0.008236054 0.027864166 0.028407723
-0.060187984 0.010762814 -0.0830366 0.20157321 -0.0031019745 -0.031435695 -0.04812945 -0.12802605
0.17863594 0.03642986 -0.012045226 -0.041654836 -0.11804899 0.08488282 -0.025564173 -0.003527625
-0.02258905 0.005820769 -0.014236383 -0.044932224 0.00010725477 -0.01983491 0.012770659 0.06843184
0.047544077 0.011546275 0.05003455 0.022869013 -0.046286285 -0.009472663 0.012134982 -0.035947163
-0.056583334 -0.08373264 -0.023060407 0.035356052 0.016918123 0.014762666 -0.026226612 -0.057474066
-0.046327136 -0.038686007 -0.017873868 -0.031114198 0.0041226456 0.060943503 0.032427303 0.06714381
-0.037437215 0.015629578 0.05131158 0.013662429 -0.0040754667 -0.05624884 0.06816492 0.00441983
-0.071766675 -0.048641145 -0.036401942 0.0077575822 0.035748743 -0.04878286 -0.05476849 -0.07254984
0.04498725 -0.052249152 0.020127349 -0.050814882 -0.05718063 -0.004266248 -0.030711459 0.023516536
-0.0065836953 0.07264995 -0.027207062 -0.018667156 -0.024467692 0.048809614 0.082316756 0.059601415
0.015584435 -0.08857519 0.016418591 0.25394863 0.07224398 -0.016830303 -0.07030053 -0.06515811
0.1603198 0.010371096 0.00044360224 0.04009798 0.04852078 -0.033869788 0.022749107 0.059607137
-0.036231995 0.031571798 -0.022645175 -0.019493626 -0.03644153 -0.0050670006 0.0035972665 0.0128058465
-0.005349235 0.01171052 0.006417825 0.0010307409 -0.019883322 -0.025998399 -0.010578267 0.010078084
0.003528609 -0.030790506 -0.0050005727 -0.037338115 -0.0032847002 -0.034726553 0.039483618 0.039933573
00000000: edd9 aaba cf1b 643c 9ead 03bc debd 6d3c
00000010: a265 77bd 5b27 003d fe69 12bd 7c8d 15bd
00000020: f4f3 223d 6486 a23b f222 35bd 363d cd3c
00000030: b57b 8cbc 4165 f13c 3599 07bd 25b2 4bbd
00000040: 8df8 19bc d9e9 90bc 60e3 a2bd b038 a5bd
00000050: db07 94bc ee42 42bc 5a64 7f3c a95a b63b
00000060: c990 92bc b856 103d dcc0 b7bc 67bb 4a3b
00000070: 6b42 3c3c 388c 52bd add4 83bc 5d7c 20bd
00000080: 429e 7b3c c2f4 44bd ed24 86bc ab8e 773d
00000090: c932 d4bb 692e 1bbd c3e0 87bc a5f0 a13d
000000a0: de22 d93b 56c5 513d b543 fa3c 338c a1bd
000000b0: 7e03 513d fb60 623d dee0 f63b 60b9 2b3c
000000c0: 3a55 f7bd 3de1 a13c 7f7d 94bc 3bfe 013d
000000d0: 1920 0dbc 8639 e4bc 3bbf 1dbb 5bb8 d2bc
000000e0: 2f82 5fbd 3ba8 61bd 11ba 893d 73d0 8d3c
000000f0: 88c8 91bb 75ac 583d 7134 b93c 2640 e73d
00000100: c055 3fbd c4b0 13bd 16ed 92bb d7a3 4fbd
00000110: 2192 9c3d 4adc e53c 66b0 5d3d 2c51 4b3b
00000120: a996 38bc 4e6a 9abc 9f63 143e dc69 3ebd
00000130: ff9f d8bc 4b28 a5bd f4fe 50bd c8a7 edbd
00000140: 8fe1 423d d0c6 a13b b586 7d3d a033 e63b
00000150: 04ca 673d ee30 aa3d e3d2 cd3c d5fb 3ebd
00000160: c4e0 97bd 9052 5cbd 2937 323c 4896 283c
00000170: a9f0 f53a 9ce9 f6bd c714 15be 8253 34bd
00000180: 4d4e 05bd a357 87bd 3a56 59bd 08c4 c03c
00000190: 6f90 f2bc 6750 c73a 5809 34bd aaef a2bd
000001a0: a3e3 b0bd 5dd8 febc f9e5 8d3c 6b72 953c
000001b0: 43c6 4ebd cfad e0bd 412d 74bc 5d80 7ebc
000001c0: 74b3 ad3c c54e f9bb b9ec e8bc 11cd 9b3c
000001d0: de3f 9abb b3c6 243d 16aa 71bc 28c5 ebbc
000001e0: 26e1 ad3d 3b19 f73a e284 4cbd 516c f3bb
000001f0: 1a7f c43c 3a59 74bc b848 8c3b 2e8e 17bd
00000200: 4a7a ffbc 6e69 c63b 6cf0 cebc bc08 a3bd
00000210: cf11 8c3b 84f0 063c 6443 e43c 50b7 e83c
00000220: ad87 76bd 8456 303c 180f aabd 3569 4e3e
00000230: 7f4a 4bbb b7c2 00bd 6323 45bd 4319 03be
00000240: 57ec 363e 7a37 153d 5759 45bc 439e 2abd
00000250: abc3 f1bd 0bd7 ad3d f56b d1bc ba2f 67bb
00000260: ac0c b9bc 26bc be3b b83f 69bc da0a 38bd
00000270: f7ed e038 d27c a2bc 073c 513c fe25 8c3d
00000280: 94bd 423d 962c 3d3c 07f1 4c3d cc57 bb3c
00000290: b096 3dbd 3a33 1bbc ced1 463c 553d 13bd
000002a0: edc3 67bd 057c abbd 2ee9 bcbc 82d1 103d
000002b0: e097 8a3c 1cdf 713c 31d9 d6bc ed69 6bbd
000002c0: 86c1 3dbd 3875 1ebd 386c 92bc 34e3 febc
000002d0: 4217 873b e59f 793d 7ed2 043d b282 893d
000002e0: c457 19bd 9a09 803c 172c 523d 61d8 5f3c
000002f0: 7e8b 85bb 2f65 66bd 0d9a 8b3d 39d4 903b
00000300: 68fa 92bd f03b 47bd 341a 15bd 5133 fe3b
00000310: 466d 123d 89d0 47bd ed54 60bd 0395 94bd
00000320: 8d44 383d 3503 56bd 1ce2 a43c 4423 50bd
00000330: 3c36 6abd e2cb 8bbb 9996 fbbc c0a5 c03c
00000340: 0abc d7bb 7fc9 943d 58e1 debc ddeb 98bc
00000350: 7870 c8bc 97ec 473d b095 a83d 9d20 743d
00000360: dc55 7f3c e966 b5bd 4880 863c 8e05 823e
00000370: a7f4 933d b4df 89bc b9f9 8fbd 9d71 85bd
00000380: e02a 243e 88eb 293c 4993 e839 c83d 243d
00000390: babd 463d 0cbb 0abd 565c ba3c 9d26 743d
000003a0: 0068 14bd 6e51 013d 6082 b9bc 19b1 9fbc
000003b0: b743 15bd 1509 a6bb 1ec0 6b3b 9dcf 513c
000003c0: a348 afbb 7bdd 3f3c 9e4c d23b ed19 873a
000003d0: 59e2 a2bc 98fa d4bc 7850 2dbc 8c1e 253c
000003e0: 3c40 673b 5f3c fcbc d8db a3bb daef 18bd
000003f0: 2044 57bb 6e3d 0ebd 93b9 213d 6391 233d

cnn2.bias f4 [32]
-0.017050562 -0.0072613643 0.031440597 0.02789096 0.002846273 -0.061761945 -0.044312127 -0.051277336
-0.03261405 -0.012575633 0.04377274 -0.024347676 0.011569439 0.0037518027 0.019431466 -0.021397406
-0.10467894 0.08883378 -0.009780119 -0.038435783 -0.1335589 -0.012205408 -0.028657546 0.006649535
-0.02289447 0.09040083 0.053150494 -0.10607151 0.03685223 0.08774989 -0.0003997463 -0.029411199
00000000: 9fad 8bbc bdf0 edbb dbc7 003d 957b e43c
00000010: 8988 3a3b 18fa 7cbd a280 35bd 2f08 52bd
00000020: 4f96 05bd 070a 4ebc 0b4b 333d c774 c7bc
00000030: bf8d 3d3c cee0 753b bd2e 9f3c 9d49 afbc
00000040: e961 d6bd 7cee b53d cb3c 20bc d76e 1dbd
00000050: aac3 08be 31f9 47bc 3bc3 eabc 58e4 d93b
00000060: 2f8d bbbc 1224 b93d 55b4 593d 053c d9bd
00000070: 5df2 163d 37b6 b33d 0a95 d1b9 c1ef f0bc

fc1.weight f4 [10, 512]
-0.09582834 -0.0039842725 0.082690515 0.03288067 -0.019310366 0.055896044 0.11693451 -0.0045659165
0.012914133 -0.110021 -0.023892727 -0.0094582345 -0.013189525 0.02687674 -0.020833952 -0.0019041982
0.015273849 -0.005302146 0.18512864 -0.018280007 0.023813635 -0.17122823 0.25313368 0.10519567
0.040758524 0.24744204 -0.30044156 0.016747056 -0.06476425 0.19098844 -0.12647426 -0.12953772
0.007987624 0.009460996 0.020654127 -0.022873517 0.06650124 -0.053270422 -0.021035628 0.05370546
0.08920945 -0.10403174 0.0071362685 0.054132126 4.9406015e-05 0.011129706 0.01775938 0.017803093
-0.060214836 -0.04858203 0.053865977 0.01917882 -0.06588987 0.015121575 0.10220338 -0.05480879
0.065341726 0.05751509 -0.18045545 0.11435775 0.07162208 -0.044832606 -0.12721196 -0.008471369
0.025517978 0.080206305 0.08320728 0.08339316 -0.11676221 0.00045685578 -0.20251113 -0.16887362
-0.07905735 0.02205015 -0.13262272 0.048904173 0.06003569 0.039842617 -0.0019419708 0.04873443
0.023013888 0.09752081 0.03319574 -0.054546233 -0.010488708 -0.0963307 0.07373882 -0.009001627
-0.07196323 -0.23024908 0.044065956 -0.0053091035 0.17961188 -0.014398421 -0.045072127 0.02698027
-0.015893575 0.003210782 -0.0005958583 0.020291703 0.011575161 -0.037657563 0.090570815 -0.026711874
-0.028548215 -0.029089514 -0.039986666 -0.006418282 0.02820399 0.06486521 -0.12121439 0.003476506
0.039730087 0.02854503 0.018738002 0.005551277 -0.010052342 0.008558621 -0.022966607 0.047461983
0.14089699 0.013804026 0.03690625 -0.02059223 0.033456676 -0.036836337 -0.04784278 0.0026943714
0.042331543 0.02797579 0.04276107 -0.009954346 0.008146974 -0.048201177 -0.004422862 0.028546827
-0.031786017 -0.018021056 -0.02114318 -0.02214077 0.04204546 -0.020706953 -0.00073039863 -0.0017802514
-0.042914174 0.036962643 -0.029074831 0.011641756 -0.033880778 0.03761779 -0.00026636198 -0.03980528
-0.014707525 -0.01777104 -0.0051570088 0.016327959 0.041784506 0.003938993 -0.01288787 0.032369673
0.048372485 -0.006625928 -0.005924518 0.023166424 -0.03460623 0.021980278 0.00027589872 0.0147545235
0.005725882 0.032803684 -0.0020033298 -0.018734112 0.013502573 0.02246657 0.027439399 -0.015669573
-0.0063016834 0.05601995 0.04094547 -0.0040716124 0.005634949 0.08427134 -0.022049941 -0.020218419
-0.097938694 -0.025280636 -0.044883598 -0.035005108 -0.0010803695 -0.03274471 -0.043520834 0.033020582
-0.058396395 -0.050383426 0.0138638215 -0.103173584 -0.010167988 0.13713153 -0.1192477 -0.0946191
-0.10501209 -0.0081717 0.072788775 -0.061603293 -0.009809329 0.0308783 0.016559858 -0.002385413
-0.00968095 0.02753483 -0.019904912 -0.11953625 -0.11060838 -0.2753099 -0.025457906 0.012096962
-0.012803961 0.044198617 -0.05770527 0.0672997 -0.021742685 0.11680292 -0.07214084 -0.0436067
0.01667888 0.07969289 -0.052162364 -0.014056316 0.057198886 0.12003676 -0.11479555 -0.02404924
-0.055583075 -0.012418793 -0.055770125 0.0067410236 0.027932134 0.099041246 -0.068817146 0.055005737
-0.00015221887 0.025564216 0.06889157 0.03029174 0.031695016 -0.1212603 -0.12667432 -0.101382755
-0.15728603 -0.010581609 0.10591778 -0.036578845 0.019971447 0.03296393 0.018595148 -0.028584726
00000000: a641 c4bd 808e 82bb a559 a93d e2ad 063d
00000010: c630 9ebc 40f3 643d 5c7b ef3d af9d 95bb
00000020: cd95 533c b152 e1bd aeba c3bc b6f6 1abc
00000030: e118 58bc 9c2c dc3c f7ab aabc 4a96 f9ba
00000040: 2a3f 7a3c a0bd adbb 5d92 3d3e f4bf 95bc
00000050: d014 c33c 7456 2fbe bd9a 813e d470 d73d
00000060: 69f2 263d 7261 7d3e 7ad3 99be 1f31 893c
00000070: 1ea3 84bd 7992 433e 7882 01be 89a5 04be
00000080: 86de 023c 4b02 1b3c d832 a93c 3e61 bbbc
00000090: cd31 883d 1632 5abd e952 acbc 42fa 5b3d
000000a0: 72b3 b63d 980e d5bd 5cd7 e93b a6b9 5d3d
000000b0: 4e39 4f38 5f59 363c 1f7c 913c cbd7 913c
000000c0: d5a3 76bd f3fd 46bd 92a2 5c3d e71c 9d3c
000000d0: 45f1 86bd 7cc0 773c 0150 d13d 2f7f 60bd
000000e0: e2d1 853d f194 6b3d 50c9 38be 6534 ea3d
000000f0: 99ae 923d 65a2 37bd da43 02be 7fcb 0abc
00000100: 140b d13c 3443 a43d 9468 aa3d 08ca aa3d
00000110: 0721 efbd 2586 ef39 145f 4fbe 35ed 2cbe
00000120: d2e8 a1bd 84a2 b43c 40ce 07be be4f 483d
00000130: fce7 753d 0332 233d ba89 feba c19d 473d
00000140: 9f87 bc3c feb8 c73d 42f8 073d df6b 5fbd
00000150: d4d8 2bbc 0849 c5bd 6104 973d 8f7b 13bc
00000160: 7561 93bd 6ac6 6bbe 817e 343d fdf7 adbb
00000170: 2dec 373e 5be7 6bbc 8d9d 38bd ba05 dd3c
00000180: 3e33 82bc fc6b 523b 6033 1cba c93a a63c
00000190: bea5 3d3c d13e 1abd 317d b93d dcd2 dabc
000001a0: f2dd e9bc 224d eebc 0fc9 23bd 7450 d2bb
000001b0: 0e0c e73c 0dd8 843d 403f f8bd 18d6 633b
000001c0: 04bc 223d 44d7 e93c 7080 993c 7de7 b53b
000001d0: 94b2 24bc 7539 0c3c 7724 bcbc 7f67 423d
000001e0: 4d47 103e 482a 623c 022b 173d 09b1 a8bc
000001f0: de09 093d b3e1 16bd caf6 43bd 0d94 303b
00000200: d763 2d3d 7c2d e53c 3b26 2f3d 8e17 23bc
00000210: e37a 053c 996e 45bd a8ed 90bb 09db e93c
00000220: 0e32 02bd e5a0 93bc 7634 adbc 8f60 b5bc
00000230: dc37 2c3d a1a1 a9bc 3978 3fba 5357 e9ba
00000240: c6c6 2fbd 2466 173d 572e eebc 10bd 3e3c
00000250: 92c6 0abd 1d15 1a3d 80a6 8bb9 dc0a 23bd
00000260: d5f7 70bc 9294 91bc 20fc a8bb 36c2 853c
00000270: 3b26 2b3d ab12 813b a527 53bc 1096 043d
00000280: 3a22 463d 501e d9bb 7622 c2bb 83c7 bd3c
00000290: 43bf 0dbd fc0f b43c 80a6 9039 f5bc 713c
000002a0: 2ea0 bb3b 285d 063d 4c4a 03bb 4878 99bc
000002b0: e539 5d3c d00b b83c 97c8 e03c 7a5d 80bc
000002c0: 5a7e cebb 2d75 653d 70b6 273d 296b 85bb
000002d0: 61a5 b83b 7496 ac3d 14a2 b4bc 19a1 a5bc
000002e0: 1594 c8bd 5619 cfbc ddd7 37bd 8461 0fbd
000002f0: 2f9b 8dba 511f 06bd e742 32bd 9740 073d
00000300: 0f31 6fbd da5e 4ebd 1525 633c ac4c d3bd
00000310: a297 26bc 356c 0c3e 2338 f4bd a9c7 c1bd
00000320: 9410 d7bd 98e2 05bc 4812 953d bc53 7cbd
00000330: 4fb7 20bc 7df4 fc3c 8aa8 873c 9754 1cbb
00000340: d99c 1ebc b990 e13c a00f a3bc 6ccf f4bd
00000350: a586 e2bd 6bf5 8cbe 198d d0bc 5632 463c
00000360: b4c7 51bc 9c09 353d 5c5c 6cbd 6dd4 893d
00000370: b71d b2bc 5f36 ef3d 94be 93bd f09c 32bd
00000380: 26a2 883c 0736 a33d 34a8 55bd 764c 66bc
00000390: 6149 6a3d d5d5 f53d ee19 ebbd e902 c5bc
000003a0: 14ab 63bd 3178 4bbc 376f 64bd cee3 dc3b
000003b0: eed1 e43c 23d6 ca3d 01f0 8cbd b24d 613d
000003c0: f19c 1fb9 0c6c d13c 0617 8d3d 6226 f83c
000003d0: a2d2 013d 5257 f8bd eab6 01be c3a1 cfbd
000003e0: 970f 21be 7c5e 2dbc 6ceb d83d b3d3 15bd
000003f0: 299b a33c 3005 073d da54 983c 842a eabc

fc1.bias f4 [10]
-0.09255665 0.1144023 -0.091100894 -0.075468406 0.011521737 0.045653913 0.014481572 -0.014488274
0.047065996 0.02792694
00000000: 578e bdbd c14b ea3d 1b93 babd 2e8f 9abd
00000010: abc5 3c3c 99ff 3a3d 1e44 6d3c 3a60 6dbc
00000020: 46c8 403d 0ac7 e43c
